assets/recommendation_model.tflite (tflite, 53184 bytes, 2 tensors)

arith.constant f4 [196, 64]
000000 9d a9 e9 bd 7e 09 3c bd 48 29 02 3d b8 36 93 3d
       -0.11409304 -0.04590749 0.03177765 0.07188171
000010 6a 5d ad 3d f6 f0 10 3e ec de d7 3d 76 69 17 3e
       0.08465083 0.1415442 0.10540566 0.14786324
000020 9c 21 6d 3d 38 b4 c3 bc 3f 02 e9 bd 68 70 be bd
       0.05789338 -0.023889646 -0.113773815 -0.092987835
000030 4e 37 51 bd 60 96 af 3c 1c e7 18 3e 84 61 ec 3d
       -0.051078133 0.02143401 0.14931911 0.11542037
000040 dc ef 02 bd 22 6a cc bd f2 d9 7f bd 51 d6 0b be
       -0.03196703 -0.09981181 -0.06246371 -0.13655974
000050 0c a3 69 3d 08 1f a7 3c a2 91 cf bd 18 83 fc bc
       0.05704026 0.020400539 -0.10135199 -0.03082423
000060 c6 52 06 3e 50 57 50 bc a4 cc 0a 3e 30 70 b3 3d
       0.13117513 -0.012716129 0.13554627 0.087616324
000070 dc df ae bd eb 11 0a be 2c 20 c5 3d 80 8e 22 bb
       -0.085387915 -0.13483398 0.09625277 -0.0024804175
000080 28 b5 dc 3d 8a 01 c4 3d 14 5b ad 3d 6c c2 3f bd
       0.1077674 0.09570606 0.084646374 -0.046816275
000090 24 3b 05 3e cc a8 a0 3d 04 4c 04 3e cc b7 17 3e
       0.13010842 0.078446954 0.12919623 0.14816207
0000a0 18 11 a3 3d 70 62 7c 3c 00 4c 26 3d 3c b0 35 3d
       0.07962245 0.015404329 0.040599823 0.044357523
0000b0 84 06 f3 3d d4 f0 6a bd b0 1f 6f bd d0 56 a9 3c
       0.11866477 -0.057358578 -0.05837983 0.020671278
0000c0 d8 50 3c 3d 40 a2 4e 3c 20 90 94 3b c1 96 b1 bd
       0.045975536 0.012611926 0.0045337826 -0.08671332
0000d0 20 2c 1f 3d 80 f5 57 bd 94 9a df 3d e8 00 c0 3c
       0.03886044 -0.05272436 0.10918155 0.023437932
0000e0 94 be 20 3d 9f 4f 03 be 48 be d1 bc 10 81 ab bd
       0.03924425 -0.12823342 -0.025603428 -0.08374226
0000f0 4c be 92 3d a8 a3 56 bd 02 5b 14 3e 12 f2 a7 bd
       0.071652025 -0.05240217 0.14487842 -0.08200468
000100 b1 5e a6 bd 14 80 da 3d d0 bf 5a 3c 44 c7 11 3d
       -0.0812353 0.1066896 0.013351396 0.035590425
000110 78 74 94 3c 78 a8 55 bd 32 d5 dd bd 60 e5 49 3c
       0.018121943 -0.052162617 -0.108316794 0.012322754
000120 00 f9 81 bb e2 d7 49 bd 80 c1 73 3c e2 d8 b9 3d
       -0.0039664507 -0.049278148 0.014877677 0.0907457
000130 6e f1 81 3d b6 4e 8a 3d 88 43 17 bd 34 eb 88 3d
       0.06344877 0.06753294 -0.036929637 0.066854864
000140 22 93 a3 3d 90 74 7f 3c 46 21 e9 bd 3a f5 dd bd
       0.07987048 0.0155917555 -0.113832995 -0.10837789
000150 79 6e c1 bd 0d d1 0f be 46 e9 43 bd 2a 9d 82 bd
       -0.09444899 -0.1404459 -0.04782989 -0.06377633
000160 2c ca 8a 3d 68 7f 1f 3d 4e 53 b1 3d 1f 8b 0b be
       0.067768425 0.038939863 0.08658467 -0.13627289
000170 d4 d6 18 3e 20 8b 82 bb 70 1d 25 bd 82 86 b4 3d
       0.149257 -0.00398387 -0.040311277 0.08814718
000180 30 03 5a 3d 92 d6 bc 3d 04 73 a0 3d 82 df ad 3d
       0.053225696 0.092206135 0.078344375 0.08489896
000190 92 25 05 3e 4a 89 2e bd 10 82 9e 3c 9c 9a de 3d
       0.13002613 -0.042611398 0.019349128 0.10869333
0001a0 12 03 bc bd 72 50 5b bd a6 eb 0d be a6 de f5 bd
       -0.09180273 -0.053543516 -0.13859424 -0.120053574
0001b0 9e 56 e2 bd 54 13 06 3e 00 1c 2d 39 90 35 ea 3d
       -0.11051677 0.1309331 0.00016508996 0.114359975
0001c0 fe 32 5d bd 54 d9 e9 3d 90 a1 a5 3d c4 7c fc 3d
       -0.054003708 0.11418405 0.08087456 0.12328485
0001d0 d0 d2 99 bc ec c3 03 3e e4 c5 66 3d a0 2f 88 3d
       -0.018777281 0.12867707 0.056341067 0.06649709
0001e0 94 8c 19 bd 13 fd 05 be 70 ab 46 bc 9c cd 59 3d
       -0.03748758 -0.13084821 -0.012125835 0.0531746
0001f0 34 26 85 3d 3a 14 8d 3d e0 6a d6 3c 82 89 15 bd
       0.06501427 0.068886235 0.026174009 -0.03650809
000200 ba 23 15 3e 20 c9 7b 3d f8 8c 80 3d 8e 67 be 3d
       0.1456441 0.061471105 0.06276888 0.09297095
000210 f0 42 c6 bc d0 b9 b4 3d 81 1e a8 bd d8 a1 cb 3d
       -0.02420184 0.088245034 -0.08208943 0.099429786
000220 3f 2f b1 bd dc e6 d1 3d 38 bf 11 3d cc 3d 1b 3e
       -0.086515896 0.10249111 0.03558275 0.15160292
000230 41 14 0f be c0 a4 0e be 47 b9 19 be c0 5e 78 3c
       -0.1397257 -0.13930035 -0.15012084 0.015159309
000240 0c 3f da bd 9c 79 cf 3d d8 a2 86 3c 53 ad fb bd
       -0.106565565 0.10130617 0.016435072 -0.12288918
000250 2c 2e cd 3d cb 61 09 be df 93 c7 bd a8 57 cc bd
       0.10018572 -0.13416211 -0.09745001 -0.099776566
000260 10 6e b5 3c 45 40 9a bd 3e 6a d5 bd 7a 83 ba 3d
       0.022147208 -0.0753179 -0.10420655 0.091071084
000270 c4 e9 ba 3d f4 3c dc 3d 04 e4 4b bd 50 5d e1 bd
       0.091266185 0.107538134 -0.049778 -0.11004126
000280 92 b1 2d bd 1a 87 87 bd c0 f6 2b 3d 4b 66 b3 bd
       -0.042405672 -0.066175655 0.041983366 -0.08759745
000290 44 3b d3 bd ab 9f cf bd 72 e8 c7 3d f8 58 7f 3d
       -0.103140384 -0.10137876 0.09761132 0.062340707
0002a0 ea d5 2c bd 58 e9 15 3e 70 28 b9 bd be 81 9c bd
       -0.04219619 0.14639795 -0.09040916 -0.07641934
0002b0 28 9a dc 3d d4 3d 20 3d d0 4a e6 3c d0 b0 26 bc
       0.107715905 0.039121464 0.028111845 -0.010173991
0002c0 b2 58 12 3e 4e af 33 bd 00 46 b9 3c 68 f6 90 3d
       0.14291647 -0.043868355 0.022616386 0.07078248
0002d0 1a 66 e8 bd f3 88 03 be 08 e7 a5 bc 00 99 ce bb
       -0.11347599 -0.1284521 -0.020251766 -0.00630486
0002e0 ee 22 40 bd 10 61 10 bd e8 13 6e 3d e2 20 bc bd
       -0.04690831 -0.035248816 0.058124453 -0.091859594
0002f0 80 9b 2e bc 50 f5 80 3d 6e 96 10 3e b4 4b 9a 3d
       -0.010657191 0.0629679 0.14119884 0.075339705
000300 1e 92 05 bd ac cc 0f be 8a 00 a8 bd 80 f4 b0 3c
       -0.03261005 -0.1404292 -0.08203228 0.021600962
000310 f8 5d 27 3d 3d 67 08 be b7 30 17 be 9d 62 d3 bd
       0.0408611 -0.13320632 -0.14764677 -0.10321543
000320 48 7d bc 3d 14 95 e7 3d e0 b5 10 bc f0 b9 96 3d
       0.09203583 0.11307731 -0.008832425 0.073596835
000330 f1 d8 b0 bd b0 24 1e 3c 64 3a fe 3d e1 9a fa bd
       -0.08635128 0.009652302 0.12413481 -0.12236572
000340 9d 1d ec bd 80 bf bc bc 50 e8 ad 3c 78 37 97 bc
       -0.11529086 -0.023040533 0.02122894 -0.018459067
000350 1e 1a 05 be 3e 71 b7 bd 82 56 fb bd f0 b5 99 bd
       -0.12998244 -0.08957146 -0.122723594 -0.07505405
000360 7c 70 e8 3d cd 35 88 bd 44 10 a1 bd 0c 64 f3 3d
       0.1134958 -0.06650887 -0.078644305 0.11884317
000370 f4 2c a8 bd f5 70 ab bd cc 12 46 3d f4 cd d0 bd
       -0.08211699 -0.08371154 0.04835777 -0.101955324
000380 d0 42 cf 3d 78 f5 a7 3d b7 e6 0b be 38 24 4f 3d
       0.10120165 0.08201116 -0.1366223 0.05057165
000390 2c 7f 75 3d c0 e0 00 be bc 86 90 bd d8 35 dc bc
       0.059935734 -0.12585735 -0.070569485 -0.026881143
0003a0 28 28 a9 bd 98 94 f6 bc 64 2c f6 bd be 07 8e 3d
       -0.08259612 -0.030100152 -0.120201856 0.069350705
0003b0 f5 e1 00 be 26 b8 bc 3d 68 43 d0 3c 60 c5 8b bb
       -0.12586196 0.09214811 0.025422767 -0.0042654723
0003c0 31 59 05 be 8d bb ba bd 44 0c df bc 14 fe 47 bd
       -0.13022305 -0.09117804 -0.027227528 -0.048826292
0003d0 60 08 30 bc c0 f5 08 be c6 0e 6d bd 10 66 4b bc
       -0.010744184 -0.13374996 -0.057875417 -0.01241447
0003e0 cc 1e 5e bd 48 23 ee bc d2 2e 9a 3d 48 bf db bd
       -0.05422859 -0.029069558 0.075284615 -0.107298434
0003f0 a0 aa 7c bc c0 fc c3 3d 40 44 07 be 8e 32 7d bd
       -0.01542154 0.095696926 -0.13209629 -0.06181579

sequential_1_1/dense_3_1/MatMul f4 [64, 6]
000000 34 6a 03 be 4a 7a 81 3e 00 62 51 3a f8 15 fa 3d
       -0.12833482 0.25288612 0.00079873204 0.122112215
000010 40 2a 2d be 3e ac 87 3e 00 cc 72 bc 58 75 79 bd
       -0.16910648 0.26498598 -0.014819145 -0.060902923
000020 8c a7 91 3e ff 29 8d be 5a 8d 61 be 40 7f ab 3d
       0.2844814 -0.27571103 -0.22026578 0.083738804
000030 4e 80 8b bd 1c bb 02 be 12 43 f8 bd 14 5b 7c 3e
       -0.068115816 -0.12766689 -0.12122168 0.24644119
000040 1a e7 23 3e 3c 1c 92 be a8 0e 11 3d 40 22 88 bd
       0.16006127 -0.28537166 0.035414368 -0.06647158
000050 a4 4f 24 3e 46 a2 3a 3e c8 20 30 bd 18 be 57 3e
       0.16046005 0.18225965 -0.043000013 0.21068609
000060 d6 38 95 3e 5f 50 54 be 80 0f 39 3c 10 30 9a bd
       0.29144925 -0.20733784 0.011295199 -0.075286984
000070 be 7d 5b be 6c c8 61 bd 38 ab 78 be b0 03 a6 3c
       -0.21434686 -0.055122778 -0.24284065 0.02026543
000080 f0 71 83 3e 40 b3 b3 bd 20 52 d0 3c 63 74 80 be
       0.25672865 -0.087744236 0.025429785 -0.25088796
000090 9c 72 1c 3e 90 e8 74 3d e8 35 7f bd 04 44 c5 bd
       0.15278095 0.0597921 -0.06230727 -0.096321136
0000a0 e6 18 4f 3e dc a0 0d 3e 70 72 43 3e 2a 62 b9 bd
       0.20224342 0.13830894 0.19086623 -0.090519264
0000b0 5c e0 b9 3d 40 eb c0 3c 3b 7f 6c be 10 e1 c9 bc
       0.09075996 0.023549676 -0.2309541 -0.024643451
0000c0 de 36 20 be f5 e7 08 be d8 94 50 3e 40 68 62 3c
       -0.1564593 -0.13369735 0.2036928 0.0138188
0000d0 30 a5 f7 bd e5 ba 43 be 00 e8 fc 3d c0 29 46 3c
       -0.12092054 -0.19114263 0.12348938 0.012094915
0000e0 40 09 ed 3c 34 73 8f 3d ea 47 86 3e c0 94 14 bd
       0.028935075 0.07004395 0.2622674 -0.03627467
0000f0 54 04 08 be c4 f2 44 3e 60 55 28 3c 0e 06 35 be
       -0.13282901 0.19233233 0.010274261 -0.17678091
000100 2c f3 4e 3e 26 8a 87 3e 29 cd 17 be f0 ba ca 3d
       0.2020995 0.26472586 -0.14824356 0.09898937
000110 5e 21 46 be 00 66 c9 bc 10 f5 f5 3d b0 23 ca bd
       -0.19348666 -0.02458477 0.120096326 -0.09870088
000120 78 75 cb bd c8 5c 1e be d6 0f 8c bd ea 6d 3d be
       -0.09934515 -0.1546508 -0.06838958 -0.1849896
000130 26 df 4e 3e 78 66 d7 3d 51 25 52 be 44 86 57 bd
       0.20202312 0.10517591 -0.20522048 -0.05261828
000140 d2 55 ee bd c0 dd 1f bd e0 a2 87 3e c8 2e 31 bd
       -0.11637463 -0.039029837 0.2649145 -0.043257505
000150 60 65 ed 3c 4e ad 82 be 15 7b 20 be 09 71 20 be
       0.028979003 -0.25522846 -0.15671952 -0.1566812
000160 90 54 34 bd 17 a0 25 be 80 58 18 be 90 18 58 3e
       -0.044025958 -0.1617435 -0.1487751 0.2110312
000170 4c f1 8d be 00 f6 4c ba 18 2b 69 3e d8 82 80 3e
       -0.27723157 -0.0007818639 0.22770345 0.25099826
000180 76 24 22 3e f0 8b 8c 3e 84 fb 24 be ea 23 16 3e
       0.15834221 0.27450514 -0.1611157 0.14662138
000190 c8 49 e2 3d e4 68 48 be 50 6a 88 3c 29 c0 8b be
       0.11049229 -0.19571263 0.016652256 -0.27295044
0001a0 00 1a 67 be ac ac 70 3e d8 82 28 bd 90 0c 1a 3e
       -0.22568512 0.23503369 -0.041140407 0.15043855
0001b0 38 a6 67 3e bb d9 25 be 54 5f 92 3e c0 29 9c 3b
       0.22622001 -0.16196339 0.28588355 0.004765719
0001c0 50 c6 eb bd 7d de 09 be 9a 6b 36 be 78 b2 5f bd
       -0.115124345 -0.13463779 -0.17814484 -0.05461356
0001d0 00 77 70 bb 28 cb ae 3d 90 bb 65 3d 7b 62 92 be
       -0.0036692023 0.08534843 0.056087077 -0.2859076
0001e0 80 14 de bb 50 85 f4 3d 04 d8 76 3e 6c 96 a2 bd
       -0.006777346 0.1193949 0.24105841 -0.07938847
0001f0 22 7d 8a be a8 20 5c 3d 63 21 89 be 8e d3 06 3e
       -0.27048594 0.05374208 -0.26783285 0.13166639
000200 84 95 8b be b0 b0 90 3c 18 1d b3 bd fe b6 8b 3e
       -0.2726251 0.017662376 -0.087457836 0.2728805
000210 4e 26 3a 3e a0 0d 48 bc 08 18 64 be 90 ff 32 bd
       0.18178675 -0.01221028 -0.22274792 -0.043700755
000220 22 25 36 be 86 10 31 be e7 ed 3a be b8 38 8f 3e
       -0.17787603 -0.1729146 -0.18254815 0.2797296
000230 74 6a 77 bd 18 03 3c bd 30 16 8d 3c b1 c3 1c be
       -0.060404256 -0.045901388 0.017222494 -0.15309025
000240 2a bd 5f be a4 89 d3 3d d2 b5 8a bd 16 4b 90 be
       -0.21849504 0.10328987 -0.06772961 -0.28182286
000250 f0 1c 08 3e 00 6a e2 bb 10 ad c8 3c 32 5d 11 3e
       0.13292289 -0.006909609 0.024496585 0.14195707
000260 93 6a 50 be 4a 62 84 bd f7 23 10 be 00 b7 cb bc
       -0.20353155 -0.0646406 -0.1407622 -0.024867535
000270 46 d3 91 3e 90 b2 74 3e 3c 7b 27 3e 08 33 84 3e
       0.284815 0.23896241 0.16355604 0.25820184
000280 8c 58 6f 3e 5a 0b 50 be c0 27 77 3c 54 42 cd bd
       0.23373622 -0.2031683 0.015085161 -0.10022417
000290 c4 37 e8 3d 0c 2b 51 bd 40 5b 85 3d 9e da 8d be
       0.113387614 -0.051066443 0.06511545 -0.27705854
0002a0 e2 78 81 3e 26 14 09 be ef 90 7b be c0 5f 47 bc
       0.2528754 -0.13386592 -0.24567007 -0.012168825
0002b0 f4 a4 86 3e f0 36 de 3d 78 2e 5f 3e 22 6b 90 3e
       0.26297724 0.10850322 0.2179507 0.28206736
0002c0 f8 a2 72 3d a8 79 51 bd e8 bb fc bd 82 50 4d be
       0.05923745 -0.05114141 -0.12340528 -0.20050243
0002d0 a0 3d 75 be 91 e8 5d be 17 02 72 be 70 79 6c 3e
       -0.2394929 -0.21670748 -0.2363361 0.230932
0002e0 c7 72 93 be 7e 5e 39 be 6c 9e 3f bd c8 40 60 3e
       -0.28798506 -0.18102452 -0.046781942 0.21899712
0002f0 b0 0a a6 3c 3a 29 19 be e8 9f 81 bd 10 c4 f2 3c
       0.020268768 -0.14957133 -0.06329328 0.029634506
000300 bc a2 58 3e d6 d3 47 be 00 3b 56 3b 1e 8d 8e be
       0.21155828 -0.19514403 0.0032688975 -0.2784204
000310 50 30 d0 bc e2 60 ed bd 14 3a 6f 3e 34 a8 52 3e
       -0.025413662 -0.115907446 0.23361999 0.20571977
000320 5c 31 e7 3d 10 aa 89 be eb 06 93 be 94 d6 ed 3d
       0.112887114 -0.2688756 -0.28716215 0.11613193
000330 b4 77 b8 3d a2 6f 59 be 11 bf 3d be 88 44 3f 3d
       0.090072066 -0.21233991 -0.18529917 0.046696216
000340 f8 79 3f bd b0 b6 16 bd f1 2a 6b be 74 d2 73 3e
       -0.046747178 -0.036795318 -0.229656 0.2381075
000350 c0 14 4b 3e b0 42 bf bc e8 57 2d 3e 09 b7 23 be
       0.19832134 -0.023347229 0.16928065 -0.15987791
000360 10 ac 4a be 08 b9 94 3e 70 d8 8e 3e 58 95 51 3e
       -0.19792199 0.29047418 0.27899504 0.20467126
000370 de 41 00 be ba 98 94 3e 00 63 7d 3d 98 ec 2f bd
       -0.12525126 0.2902277 0.061861992 -0.042950243
000380 a0 95 7c 3d 90 0b 8b 3e 7d d9 5f be 5b fa 0d be
       0.06166613 0.2715726 -0.21860309 -0.13865034
000390 98 11 19 3d ca 90 45 be 68 18 64 3d 70 96 df 3c
       0.037370294 -0.19293514 0.055687338 0.027293414
0003a0 1c 72 8c be 44 be 8b be 80 37 06 bb 10 45 a2 3d
       -0.2743081 -0.272936 -0.0020479858 0.07923329
0003b0 5e 2a 60 be ca 0f 4d be 1c c5 7e 3e fe 7a 2c be
       -0.21891162 -0.20025554 0.24879879 -0.16843793
0003c0 ae 03 94 3e a0 60 76 3d 58 ec 1e 3d b0 d7 4e be
       0.28909057 0.060150743 0.038799614 -0.20199466
0003d0 2f aa 85 be c0 56 d8 3d c0 01 ca bc 52 b8 82 be
       -0.26106402 0.10563421 -0.024659038 -0.2553125
0003e0 88 a6 4d 3e 34 89 4c be 18 d1 86 3e 20 2b f1 3d
       0.20083058 -0.19974214 0.263314 0.117758036
0003f0 ea 08 4a 3e 80 20 2c bc eb 80 1a be 8a f4 17 3e
       0.19729963 -0.0105057955 -0.15088241 0.14839378
